results/model.pt (torch, 235271 bytes, 14 tensors)

weight f4 [32, 1, 3, 3, 3]
000000 f5 26 0b be ce 52 aa bd 04 da 1d bd 5d 1e 95 3d
       -0.1358908 -0.08316575 -0.038537994 0.07281182
000010 4c 4c 9d bd 7e fd f5 3c ec 10 39 be 26 57 e5 3c
       -0.07680568 0.030028101 -0.18072861 0.027995657
000020 ce e2 32 3e 4e 1f 8d bd a5 0f d8 3d 77 88 d1 bd
       0.17469332 -0.068907365 0.10549859 -0.10231107
000030 ca df 48 3e 65 d7 96 bc ee 77 60 3d 48 92 10 3e
       0.19616619 -0.018413255 0.054801874 0.14118302
000040 69 b0 e7 3c d3 44 16 be 01 9d a7 bd 84 06 c4 3d
       0.028282361 -0.14674692 -0.08184243 0.09571555
000050 6d b6 b9 3d cc 8f 8a bd 1e 04 c7 bd 9e e0 e9 bc
       0.09067998 -0.06765708 -0.09717582 -0.028549489
000060 53 20 43 bd ae 65 0a be 38 21 e0 bc 00 76 80 bb
       -0.04763825 -0.1351535 -0.02735959 -0.0039203167
000070 8b 62 9a ba b7 09 59 3e c4 d5 cb bd b5 13 e4 bd
       -0.0011778636 0.21195112 -0.09952882 -0.11136571
000080 f7 62 0f 3d 40 c8 c5 3d 65 c0 71 bd eb 73 0d 3e
       0.03500649 0.09657335 -0.059021372 0.1381375
000090 d8 0e dd 3d de 4c f2 bd a2 ec d9 bd 44 d0 b4 3d
       0.10793847 -0.118310675 -0.10640837 0.08828786
0000a0 55 34 9f bc 78 57 42 3e 55 5e c0 3d 88 8d 3a bd
       -0.019434134 0.18978679 0.093929924 -0.04554513
0000b0 21 84 4f bc 17 74 2c 3e 4d 43 df 3d c9 f7 c3 bd
       -0.012665779 0.1684116 0.109015085 -0.09568746
0000c0 3c 0c 37 bd 2c dc c1 3d 6a 16 d9 3d e4 21 b8 bd
       -0.044689402 0.094658226 0.10599978 -0.08990839
0000d0 7a 84 f8 3d 00 1b 8d bd 78 cf c7 bd eb a7 5c 3d
       0.12134643 -0.068899155 -0.097563684 0.053871077
0000e0 f4 94 0a 3e ea 0a 8a 3e 4f a7 81 3e 32 09 d4 3d
       0.13533384 0.26961452 0.2532296 0.10353316
0000f0 67 c5 b0 bd 29 3e 10 3e 3e a4 8d 3e 25 61 03 3e
       -0.086314015 0.14086212 0.2766437 0.12830026
000100 62 c6 48 3d 6c 6d 3c 3e 05 fa 40 3e e2 63 c2 3e
       0.049017318 0.18401116 0.18845375 0.3796683
000110 cd da c0 3e 72 fa b7 3e f5 be 83 3e 2f 13 da 3e
       0.37666932 0.35933262 0.25731626 0.4259276
000120 1a a8 59 3e cb 88 3c bc 7f 19 3b bd 34 8b 87 3d
       0.21255532 -0.011507223 -0.04567861 0.06618348
000130 c0 d9 5a 3c e5 e9 ff 3d 24 67 50 39 cd 22 26 3e
       0.01335758 0.12495784 0.00019874849 0.16224213
000140 ee 30 76 3e 3b bd 47 3e 0b 49 5c 3d 6a 69 b9 bb
       0.24042103 0.1950578 0.053780597 -0.0056583183
000150 5c c0 ab 3e 67 27 07 3e 0d ac 18 3e 3d 1d 60 3e
       0.33545196 0.13198625 0.14909382 0.21886154
000160 7e 84 59 3e 32 9d 72 3e 7f a7 c9 bd 66 4a 2f 3e
       0.21241948 0.23692778 -0.098464005 0.17118225
000170 7d b0 34 3e 9e b2 8d 3e 9d 95 74 3e 78 c4 94 3d
       0.1764545 0.27675337 0.23885198 0.07264036
000180 76 44 38 3e be 40 86 3e 59 f9 09 3e 75 28 ea 3d
       0.17994866 0.2622127 0.13474025 0.11433498
000190 dd a9 72 3b 61 31 9b 3c 74 20 8e 3d 2d 69 1f 3e
       0.0037027516 0.018944444 0.06939784 0.15567465
0001a0 50 6c 8e 3e 04 42 14 3e 23 1c b3 3e 8d d8 bf 3e
       0.2781701 0.14478308 0.34982404 0.37469903
0001b0 b2 98 a2 bd 5c 30 ab 3e 8f 91 cf 3e a1 61 c4 3c
       -0.079392806 0.33435333 0.4054074 0.023972334
0001c0 cd 35 08 3e 88 a1 89 3e b7 ad 03 3e 49 92 0f 3e
       0.13301773 0.2688105 0.12859236 0.14020647
0001d0 d1 ef 1e 3e 3e 71 03 3e de 97 9b 3e 5d b2 9c 3d
       0.1552117 0.12836167 0.30389303 0.076512076
0001e0 e2 02 57 3e 0e ad 97 3e 56 19 32 3e 8e 30 50 3d
       0.20997193 0.29624218 0.17392477 0.050827555
0001f0 12 85 00 3d 17 ff 82 bd a0 51 ee bd 37 41 7c 3e
       0.031376906 -0.06396311 -0.116366625 0.24634252
000200 12 c6 89 3d 3b 91 db 3c 8b ec 2c 3d d2 c2 8d 3e
       0.06727232 0.02680265 0.042217772 0.276877
000210 88 80 c7 bd a0 90 92 bc 64 d0 6e 3e d1 e2 12 3e
       -0.09741312 -0.017891228 0.23321682 0.14344336
000220 e3 72 5b 3d e1 74 62 bd 51 c1 70 bd 15 bf ad bd
       0.05357636 -0.055287246 -0.05877811 -0.08483712
000230 bf 3e 41 bd 9a fe 24 3e 57 95 0a be 03 3e 15 3e
       -0.04717898 0.16112748 -0.13533531 0.14574437
000240 48 b1 25 3e 29 d7 09 3d cc 96 93 3d b0 8c 30 3e
       0.16180909 0.03365246 0.072064966 0.17241168
000250 0c 9a 83 bd 18 b9 29 3e eb df 82 bd 6b ad 0c 3e
       -0.064258665 0.16574514 -0.06390365 0.13738029
000260 5f b6 32 3d 12 51 9b bd 74 6f c7 bc 14 42 08 be
       0.043630954 -0.07583822 -0.024345137 -0.13306457
000270 a4 3a c0 3d 05 bc 17 bd 70 65 3f bd 36 46 c3 bd
       0.09386185 -0.037044544 -0.046727598 -0.09534876
000280 ef ff d7 3d 3c f5 15 3e 15 65 df bd 0d 09 e9 bd
       0.10546862 0.1464433 -0.10907952 -0.113786794
000290 c6 38 26 3d d8 dd 0e be 2b 19 9a 3d ff 2c a5 3b
       0.040581487 -0.13951814 0.07524332 0.0050407643
0002a0 1c 57 4f 3d e2 e0 b2 3c d1 c2 c6 bc 10 23 16 be
       0.050620183 0.021835748 -0.024262818 -0.14661813
0002b0 3e 62 c8 3c f7 76 18 bd a3 a6 a9 3d 6f e6 75 3d
       0.024460908 -0.03722283 0.082837366 0.06003421
0002c0 6b ab 9d 3d 32 8a 0e 3e 2b 56 83 bc 99 16 0b be
       0.07698711 0.13919905 -0.016032299 -0.13582839
0002d0 5d 58 d8 3d 3a a4 ed 3c 43 57 99 3d 10 cc 9b 3c
       0.10563729 0.029008973 0.07487347 0.019018203
0002e0 dd ce 13 bd 0b dd a2 3d da 64 53 bb 8a 0a 7d bd
       -0.036085952 0.07952317 -0.0032256157 -0.06177763
0002f0 bb 31 35 bd b3 97 11 3e 39 68 05 3e 30 8c 18 bc
       -0.04423688 0.14218025 0.13028039 -0.009310767
000300 5b a5 1a bd b3 30 56 3e 13 76 39 3e b5 01 e6 bd
       -0.03775535 0.20917015 0.18111448 -0.11230794
000310 11 03 1b 3e c0 34 23 3d da 11 3a bd 80 bb e9 bc
       0.15137888 0.03984523 -0.04542718 -0.02853179
000320 f5 e1 ef ba 6a fe ee bd 97 aa 1d 3e 0d 22 a5 3d
       -0.0018301593 -0.116696194 0.15397106 0.08063135
000330 f0 8f 8d 3d 26 39 19 3c 5f d2 36 be 75 c0 1a 3d
       0.069122195 0.009352004 -0.17853688 0.037781198
000340 81 36 50 3d 01 65 2b be 1f 0e 00 3e 4a b0 f3 3d
       0.05083323 -0.16737749 0.12505387 0.11898859
000350 14 45 0c 3e 99 eb 2d be 2a c8 fb bb 59 c0 ac bd
       0.13698226 -0.16984405 -0.0076837735 -0.08435125
000360 76 7c 95 3d 96 0f a7 bc 50 40 8e 3e 97 c1 9d 3d
       0.0729913 -0.020393174 0.27783442 0.0770294
000370 81 85 90 3e b6 af d9 3b 96 fc 05 3e 36 08 9c bd
       0.28226855 0.006643261 0.13084635 -0.076187536
000380 19 15 43 3e 7a 06 ea 3d be 39 0d 3e 1b e7 f6 3e
       0.19051017 0.114270166 0.13791558 0.48223194
000390 3a 54 8e 3e f0 e0 c0 bd ae a6 a5 3e c6 27 e3 bd
       0.27798635 -0.094179034 0.3235373 -0.110915706
0003a0 b5 39 1a 3e d9 25 7e 3e 62 f2 4e 3e 2d 41 3f 3d
       0.15061076 0.24819125 0.20209649 0.046693016
0003b0 d8 38 bd 3e f5 74 a9 3d c7 63 02 3e 07 8c 55 3e
       0.3695743 0.08274261 0.12733375 0.20854197
0003c0 2c e3 d9 bd 77 10 05 3e 28 e3 62 bc 3e a7 00 3e
       -0.10639033 0.12994562 -0.013848104 0.12563798
0003d0 30 fa 1a be a4 d4 b4 bd 3d e0 15 be c9 cb e3 bb
       -0.15134501 -0.088296205 -0.14636321 -0.0069517833
0003e0 a1 b9 4e 3d 72 17 07 be ee 27 fb bb ab 30 94 bd
       0.05047 -0.13192537 -0.007664672 -0.07235845
0003f0 79 03 cf 3c d2 46 9d 3c 8e b9 fd 3d de d7 a5 bd
       0.02527021 0.019198809 0.123889074 -0.08097814

bias f4 [32]
000000 3a 08 58 3c f2 f4 52 bd 9f ed 0b be 99 65 39 3d
       0.013185555 -0.05150313 -0.13664864 0.045262907
000010 ae ff 79 bd 27 1f 2a 3e d6 8a f0 3d c1 ed b5 3d
       -0.06103485 0.16613446 0.11745231 0.088832386
000020 fb 93 75 bd cd c2 f4 3d 6d 41 87 bd b0 35 ad 3c
       -0.05995558 0.11951218 -0.06604276 0.021143764
000030 07 4d 29 3d 4d 54 28 be 9e 80 92 3c f7 33 db 3d
       0.041333225 -0.16438408 0.017883595 0.10703271
000040 e7 44 d2 3d a7 85 89 3d 09 18 21 bd c4 26 0a be
       0.10267048 0.06714945 -0.039329562 -0.1349135
000050 55 57 c4 bc 56 28 41 3e 68 05 2e 3d ca 5f 8d 3d
       -0.023967424 0.18863043 0.042485625 0.06903036
000060 2f 8d 20 be 20 46 99 3d d7 86 fa bd 65 af 3b 3d
       -0.15678857 0.074840784 -0.1223275 0.045821566
000070 ad 65 c0 bd 88 96 93 3d 34 08 2b be fd cf 38 be
       -0.09394393 0.07206446 -0.16702348 -0.18048091

weight f4 [32]
000000 bb 31 92 3f 8e 14 83 3f 3c 8c 78 3f 25 6a 75 3f
       1.1421427 1.0240648 0.9708898 0.9586509
000010 1d ed 78 3f 80 c7 78 3f 72 03 7a 3f 9a 85 77 3f
       0.97236806 0.9717941 0.9766151 0.96688235
000020 f2 20 76 3f 41 dd 7d 3f 84 15 8d 3f 8d e1 86 3f
       0.9614402 0.9916573 1.1022191 1.0537583
000030 f3 5a 7b 3f 88 a0 7b 3f 38 e2 75 3f 4a 2c 83 3f
       0.9818565 0.98291826 0.9604831 1.0247891
000040 d5 16 84 3f 55 99 83 3f de 68 7f 3f 26 80 80 3f
       1.0319468 1.0281168 0.9976939 1.0039108
000050 8a 64 78 3f 94 26 87 3f 9a 59 84 3f 47 43 83 3f
       0.9702841 1.0558648 1.0339844 1.0254906
000060 84 24 7a 3f 12 e7 7a 3f d8 0c 77 3f 0e 51 76 3f
       0.9771197 0.98008835 0.96503973 0.9621743
000070 64 8d 7e 3f 7e 0d 85 3f 0b d0 76 3f 3d 13 79 3f
       0.99434495 1.0394742 0.964112 0.9729498

bias f4 [32]
000000 99 4c a3 3c b0 32 18 3d 02 7b c8 3c df 7b 04 3d
       0.019933986 0.037157714 0.024472717 0.032344695
000010 0c cb 5e 3c f0 7b 0a 3d 65 83 c4 3c f0 99 3a bc
       0.013598215 0.033809602 0.023988435 -0.011389241
000020 5a 74 0f 3c dc 01 c8 3c fd 5f 40 3d 8d 30 a8 3d
       0.008755768 0.02441495 0.04696654 0.08212385
000030 3a 53 b7 3c 26 bc e6 3c 2c d9 c9 3c 5e b0 71 bc
       0.022378553 0.028165888 0.024639688 -0.014751522
000040 40 ce c9 3c f0 c9 47 3d 54 ec a4 3d 93 7e 0c 3d
       0.02463448 0.048776567 0.080528885 0.034300398
000050 fc 6e f5 3c 1e cf aa 3c 8a 55 3c 3d 07 17 1e 3d
       0.029960148 0.020850714 0.045980014 0.03859618
000060 6f bc b5 ba 58 f2 86 3d 2c 95 94 3d f3 e5 8e 3d
       -0.0013865362 0.06589192 0.07255015 0.06977453
000070 5c f9 98 bc 28 5c e7 bc ba 59 6e 3d 39 df 34 3c
       -0.018673591 -0.028242186 0.05819104 0.011039549

running_mean f4 [32]
000000 79 50 5c 3c 3e 9b 4f bd 32 8d 08 be 06 93 4d 3d
       0.013446921 -0.05068516 -0.13335112 0.05018904
000010 a1 21 6f bd b6 e7 2a 3e 33 06 f1 3d 62 7f b6 3d
       -0.05838168 0.16689953 0.117687605 0.08911015
000020 67 81 69 bd e8 46 f4 3d 68 f7 88 bd 72 3f bc 3c
       -0.057008173 0.11927587 -0.06687814 0.022979472
000030 30 4f 24 3d 0e 96 27 be ef 36 a1 3c ce df da 3d
       0.04011458 -0.16365835 0.019679515 0.106872186
000040 f8 0b d2 3d 2a 08 90 3d 01 70 1d bd 4c e1 09 be
       0.10256189 0.07032807 -0.038436893 -0.1346485
000050 23 69 9a bc fe f1 33 3e bc 1d 34 3d 16 42 90 3d
       -0.018848961 0.17572781 0.04397367 0.07043855
000060 ff 03 1c be 26 55 9d 3d 74 00 f8 bd 68 f6 38 3d
       -0.152359 0.076822564 -0.121094614 0.045156866
000070 ff 07 be bd 93 d2 94 3d ee 07 25 be 2a 1e 36 be
       -0.09278869 0.07266726 -0.16116306 -0.17784944

running_var f4 [32]
000000 ed b8 dd 3d 96 75 de 3e a0 de 83 41 d9 86 96 41
       0.108262874 0.43449086 16.483704 18.815844
000010 da 5d 2e 41 fa b4 f7 3e 78 10 bc 3b 7d a0 ea 3e
       10.897913 0.48380262 0.005739268 0.45825568
000020 c0 c1 3b 41 83 08 6f 3c 7a e5 05 3d e7 df a8 3d
       11.734802 0.014589432 0.03268955 0.08245831
000030 42 82 2a 3e ee 6b 8d 3c ee 2f 94 40 5d 7a ca 3d
       0.16651252 0.017263379 4.630851 0.0988662
000040 84 d9 85 3d d7 53 60 3e b5 7f c5 3f ac 12 f8 3d
       0.065356284 0.21906982 1.5429598 0.121129364
000050 7a 51 7f 41 16 03 9b 3d f9 e3 5d 3f 6e 50 2a 3f
       15.957392 0.07568948 0.86675984 0.66528976
000060 de 62 3f 41 54 ff 11 40 82 63 70 3f bb 7e 6a 3e
       11.9616375 2.281209 0.93901837 0.22899906
000070 d4 ff e1 3d e7 a9 29 3d 35 f7 fe 41 f6 7a 8e 40
       0.110351235 0.041421797 31.870707 4.45251

weight f4 [64, 32, 3, 3, 3]
000000 65 9c 3c 3b 8a b9 f0 3a ac 3e f3 3a af 80 d0 bc
       0.0028779742 0.0018365842 0.0018558106 -0.025451986
000010 be 67 01 3c 2c 87 fd 3c d9 14 f6 3c 26 db 9f bc
       0.007898269 0.030948244 0.030039238 -0.019513678
000020 f1 91 a6 bb c8 f0 2b 3c 91 16 b3 3c d4 0c 4f 3c
       -0.0050833155 0.010494418 0.021861346 0.012637336
000030 01 9d 13 3d 9f 03 88 bc c9 08 83 bc 78 f4 7a 3c
       0.036038402 -0.01660329 -0.0159954 0.015317075
000040 01 4a d8 3b 32 e2 c8 39 ea f8 03 3d 28 9c 89 bb
       0.006600619 0.000383155 0.032219805 -0.0041995235
000050 3f 44 bb 38 83 c4 a2 3c 81 c2 8a bc 85 e4 0d 3d
       8.929567e-05 0.019869095 -0.01693845 0.03464176
000060 28 87 ed 3c fd 67 7e 3c aa 9b e6 3c 2c bd 2d 3c
       0.028995112 0.015527722 0.028150398 0.010604184
000070 92 a4 e8 3c 74 5d 10 3d ed 01 81 3d 77 6e 23 3d
       0.028398786 0.035245374 0.062991954 0.03990027
000080 48 8e 03 3d 7d 23 30 3c a8 c7 05 3d c9 fa cb 3c
       0.03211811 0.010750649 0.03266111 0.024899857
000090 57 1e ed 3c 7f dd b3 3c b1 fc bf 3c 03 35 95 3d
       0.028945131 0.021956204 0.023435922 0.07285502
0000a0 88 b2 60 3d 7a 49 ce 3c 92 b6 76 3d 41 3e 04 3d
       0.05485776 0.02518152 0.060232706 0.032285932
0000b0 70 c1 72 3d d6 9b c1 3c aa 31 01 3d 7d 49 24 3c
       0.059266508 0.023633879 0.031541504 0.010027287
0000c0 b1 32 0f 3d 77 33 2e 3d 10 f1 10 3d e3 b6 86 3b
       0.034960452 0.04252955 0.035386145 0.0041111573
0000d0 c7 5b 46 bc c8 1c c2 3c f2 0a a9 bc ea 60 97 3c
       -0.012106842 0.023695365 -0.020635102 0.01847883
0000e0 e4 b1 18 3d 3d 49 79 3c 35 40 43 3c fa ea 5d bb
       0.037279025 0.015215215 0.011917164 -0.003386198
0000f0 8c 0c e8 3a 7a 22 a3 bb 3b dc 53 3c 1e 5f a9 3c
       0.0017703935 -0.004978475 0.012930925 0.020675238
000100 85 56 9f 3c 7b eb a5 bb dc c5 cd 3c e9 64 99 3c
       0.019450435 -0.005063472 0.02511876 0.018724876
000110 8a e1 17 3d fc ac 68 bc 2d 11 9f bc 7d fe 07 bb
       0.037080325 -0.014201399 -0.01941737 -0.0020751052
000120 79 ab d2 3c 70 32 3d bb bc 1e 8c 3c 0d 86 24 3d
       0.02571653 -0.0028869174 0.017104499 0.040166903
000130 bc ba 02 bb 43 1a 11 bc f8 c2 ad 3c 06 da a0 3b
       -0.0019947728 -0.008856359 0.021211132 0.004908803
000140 44 85 e6 bb 6e 1d bf 3c d0 74 0e 3d 42 05 bb 3a
       -0.0070349295 0.023329463 0.03477937 0.0014268535
000150 be a3 5e 3c 8c 70 7e bc 9a d5 b0 3c 67 8b 60 bc
       0.013588844 -0.015529763 0.021586228 -0.013705111
000160 8a 8a 5f bb 0c 90 a0 3b 20 56 67 bc 84 0a 7b bc
       -0.0034109675 0.004899984 -0.014119655 -0.015322331
000170 8c d7 09 bc 4a 8a 8e bc 7c f4 1e 3c 35 a1 56 3c
       -0.008413207 -0.017399926 0.009701844 0.013099958
000180 22 e1 01 3d a6 ba 9b bc 75 ed 8b bc 30 4d e9 3c
       0.031708844 -0.0190099 -0.017081002 0.028479189
000190 23 39 95 bc e5 06 e4 3c 51 76 1f 3d 2a 97 cf 3c
       -0.018215721 0.027835319 0.038931195 0.025340635
0001a0 d0 e7 f2 3c b3 9c a5 3b 7a db 15 3d 9f db 82 bb
       0.029651552 0.0050540804 0.036586262 -0.003993466
0001b0 93 5b 04 3d 38 52 18 bc 83 d6 3f 3c b9 db 0a 3d
       0.032313894 -0.009296946 0.011708858 0.03390095
0001c0 e3 2a 02 bc 56 e3 27 3d a2 9d 30 3d 21 a1 8d bc
       -0.007944795 0.04098829 0.04311908 -0.017288746
0001d0 23 92 c3 3c 36 ff 19 bc de 44 8c 3b 45 d4 2d ba
       0.023873394 -0.009399226 0.0042806705 -0.0006631057
0001e0 df e6 b7 bc 85 81 d3 bb a1 36 22 3d 89 80 26 3d
       -0.022448955 -0.006454649 0.03960288 0.040649924
0001f0 46 15 3a 3c 79 5e a4 3c 42 05 0f 3c c7 71 21 3c
       0.011357611 0.02006458 0.008729281 0.009853787
000200 c6 47 f1 3c ee 0f 11 3d 34 b3 f6 bb 09 88 a4 bc
       0.02945317 0.035415582 -0.007528687 -0.020084398
000210 ad db 11 3d 1b 35 e0 3c 7b aa 8a 3c e4 2a a6 3a
       0.03560989 0.027369073 0.016926995 0.0012677577
000220 33 64 e0 bc 94 d1 26 bb 22 29 38 3d 94 3c fd 3c
       -0.027391529 -0.0025454508 0.044961102 0.030912675
000230 fe 6d af 3c 34 07 be 3b 13 04 c3 3c 56 b3 83 3b
       0.021414753 0.0057991985 0.023805654 0.0040191812
000240 9d e5 a1 3c 32 ac d5 3b 5f 20 6b 3c c3 5f 1b 3d
       0.019762808 0.0065207714 0.01435098 0.037933122
000250 eb 20 a6 3c d8 f9 81 3b ce 58 b8 3c ab cf 36 bc
       0.020279368 0.0039665513 0.022503283 -0.01115791
000260 b2 01 73 3d 92 9c 7d 38 74 3b 00 bd 36 66 2a 3d
       0.05932779 6.0465718e-05 -0.0313067 0.041601382
000270 8e ab 3b 3d ef 0a b4 3c 9d ae 99 3c 52 3f 01 3d
       0.045817904 0.02197787 0.01876002 0.031554528
000280 b5 8c 46 3b a2 74 58 3c f3 69 e8 3a 56 e3 08 bd
       0.003029627 0.013211401 0.0017731771 -0.03341993
000290 09 af 04 3c 16 16 9e 3b 1b 9a 64 bd 37 6f 49 bd
       0.008098372 0.00482441 -0.05581103 -0.04917833
0002a0 bb 5b b8 bc a9 ab eb bc cb 3d 50 bd c2 25 b6 3c
       -0.022504678 -0.028768377 -0.05084018 0.022234801
0002b0 04 2b b2 bc 65 6c 2c bd 0f 80 5b bc b7 73 60 3b
       -0.021749027 -0.04209556 -0.013397231 0.003424866
0002c0 50 26 57 bd 0d e1 c2 3b bd 4a fc 3b 95 a0 25 bd
       -0.052526772 0.0059472383 0.007699339 -0.040436346
0002d0 bc 2d 21 bd a6 9b 9a bc b3 79 48 bc 04 3e 60 bd
       -0.039350256 -0.018873047 -0.012236047 -0.054746643
0002e0 ac 70 5f bd da 68 43 bc 3d cc f8 3c c0 ff 8a 3c
       -0.05455081 -0.011926854 0.030370826 0.016967654
0002f0 fc 42 3f bd 4d 93 94 bb 0b ed 2d bb 33 39 87 bb
       -0.04669474 -0.004534161 -0.0026538994 -0.0041266917
000300 b8 7e 00 3d 11 75 7a 3c 94 fa 3d 3c e8 70 85 bc
       0.03137085 0.0152867 0.011595387 -0.01628919
000310 21 3f da 3b 40 47 59 bc af c5 45 bb 6d 9b 4a bc
       0.0066603576 -0.013261616 -0.0030177643 -0.012366158
000320 da 47 e4 bc 0b b9 8e bc 17 d9 95 bc fc cd 1d 3d
       -0.027866293 -0.01742222 -0.018291993 0.03852652
000330 bc 85 dd 3c 95 4d 05 3d a0 82 37 bc ac cd b3 bc
       0.027041309 0.03254469 -0.011200577 -0.021948658
000340 36 c3 d3 3a 8e de d9 3c 32 ff 39 3c af 77 28 bc
       0.00161562 0.02659538 0.011352347 -0.010282441
000350 a2 7c e5 bc 33 75 44 bc 29 7d e0 3b d4 82 2f 3c
       -0.028013531 -0.011990833 0.0068508578 0.010712344
000360 51 79 75 3b 0f 8d 02 3d 71 ac 0b 3c 37 ca 21 3b
       0.0037456343 0.031872805 0.008525 0.002468718
000370 b9 c6 2b 3c 92 61 ca 3b a8 82 51 bc 1c 9c 74 3c
       0.010484391 0.006176182 -0.0127874985 0.0149297975
000380 99 dd d4 3b 04 30 ef bb 11 de 62 3b 53 c4 86 bc
       0.006496143 -0.007299425 0.0034617225 -0.016451037
000390 95 98 04 3d d4 1f 91 bc f1 57 13 3d 07 40 ac 3c
       0.032372076 -0.017715372 0.03597254 0.021026624
0003a0 72 91 42 bc f7 69 d6 3c ee d8 74 bc 20 2e d8 3c
       -0.011875497 0.026173575 -0.014944298 0.026389182
0003b0 09 f8 dd 3b 2b 4c 97 bc a2 ba 63 bc 13 a8 01 3c
       0.006773953 -0.018468937 -0.013899477 0.007913607
0003c0 1a cc cc bc 0a 32 b9 3c 25 70 e5 3c 75 48 e1 bb
       -0.024999667 0.022606868 0.028007576 -0.0068750926
0003d0 93 8f 53 3c c7 be 20 bd cd eb 13 bd 8b 0b d5 bc
       0.012912649 -0.03924444 -0.03611355 -0.02600648
0003e0 02 fc f2 bc 20 d9 c2 3b 99 37 39 bd 83 9b da 3b
       -0.029661182 0.0059462935 -0.045219038 0.0066713705
0003f0 fd 64 20 bc 3a 85 03 bd 9b 46 c4 bb 90 0a 49 3c
       -0.0097897025 -0.032109477 -0.005989862 0.012270585

bias f4 [64]
000000 08 84 f2 bc 11 9b 1e 3d d0 a2 37 bb a2 34 eb 3c
       -0.029603973 0.0387221 -0.0028020628 0.02871162
000010 8b c5 8a 3c d0 e5 2d bd 19 d0 95 bc 10 9f 22 3d
       0.016939899 -0.042455494 -0.018287705 0.039702475
000020 21 0f 5f 3a 00 31 cb 3c 5d 50 2d bd 47 b5 45 bb
       0.0008509029 0.024803638 -0.04231297 -0.0030167864
000030 e8 c2 63 bd 6d eb 41 3c 3e 89 9a 3c 63 74 f5 3c
       -0.0556058 0.011835915 0.01886427 0.029962724
000040 23 bc 37 3d 69 5c 47 bb 59 b6 f7 3c fa 99 e0 3c
       0.044857156 -0.003042007 0.030238317 0.027417172
000050 c3 d5 fe 3a b6 03 d4 3b a8 58 d3 bc 84 e8 38 bc
       0.0019442368 0.006470169 -0.02579911 -0.011285905
000060 67 35 04 bd 1f 37 03 3d 08 01 fe bc cc 71 b9 bc
       -0.03227749 0.03203499 -0.031006351 -0.02263727
000070 70 0c cd 39 f0 5c c3 bc b1 3c de bc 57 56 ba bc
       0.00039109914 -0.023848027 -0.02712855 -0.022746248
000080 5a 46 1e bd 4a f0 15 bc 64 e8 06 3d 3a c1 90 3b
       -0.03864131 -0.009151528 0.03293647 0.0044175657
000090 79 79 b7 3c 12 d2 a6 3d 09 1d 59 bb a3 7b c6 bb
       0.02239679 0.081455365 -0.0033128879 -0.006057219
0000a0 49 a9 96 3c 0f f9 38 3c b7 fc 12 bd 47 de c7 bb
       0.018391268 0.011289849 -0.03588554 -0.0060994956
0000b0 36 f5 d5 3a d0 7e 88 3b 30 2f af 3c 09 f9 b5 3c
       0.0016323689 0.004165508 0.021384805 0.022213476
0000c0 54 e1 04 bb 94 c9 42 bd b6 59 f5 bb 27 f8 ff 3c
       -0.0020275908 -0.04755552 -0.007487501 0.031246258
0000d0 c0 5e 08 3d 07 70 88 3d 55 a4 df 3c 81 33 17 bd
       0.033293486 0.066619925 0.02730004 -0.036914352
0000e0 ec 08 09 3b c9 c1 4c 3c 7e 93 5a bd f9 20 44 bc
       0.002090986 0.012497374 -0.053363316 -0.011970752
0000f0 d1 da 4c 3c d5 00 d8 bc 40 10 52 3c 92 b8 14 bd
       0.012503342 -0.026367584 0.012821257 -0.036308832

weight f4 [64]
000000 f8 25 86 3f 2a 1e 86 3f f0 b0 72 3f 5c 92 85 3f
       1.0480337 1.0477955 0.94801235 1.043529
000010 03 a9 73 3f 40 81 77 3f 9a a2 85 3f 9b 26 76 3f
       0.95179766 0.96681595 1.0440247 0.9615266
000020 2f 3a 72 3f 95 ce 68 3f 58 b9 84 3f 7c 8d 74 3f
       0.9462003 0.9094022 1.0369062 0.9552839
000030 5d a6 85 3f 61 4b 6e 3f 79 3b 86 3f 6e e0 85 3f
       1.0441395 0.9308377 1.04869 1.0459116
000040 3d fd 70 3f f9 7e 6e 3f 72 53 86 3f 9e 56 86 3f
       0.9413641 0.93162495 1.0494215 1.0495183
000050 b6 73 7c 3f c4 f7 6e 3f e2 6f 85 3f ad 1a 75 3f
       0.9861406 0.9334681 1.0424769 0.9574383
000060 f4 98 7a 3f 52 69 6c 3f 9d 94 84 3f f7 6d 79 3f
       0.9788964 0.92348206 1.0357853 0.9743342
000070 67 45 78 3f 62 a0 85 3f 0d 9c 85 3f 3d 35 7d 3f
       0.969809 1.043957 1.0438248 0.9890936
000080 f6 54 86 3f 61 4e 73 3f 19 f2 84 3f a0 d2 74 3f
       1.0494678 0.9504147 1.0386382 0.9563389
000090 b1 dd 85 3f 22 4c 85 3f 68 fb 72 3f aa e3 71 3f
       1.045828 1.0413859 0.94914865 0.9448801
0000a0 03 1e 87 3f e2 fd 84 3f 35 6a 72 3f 9b 11 86 3f
       1.0556034 1.0389979 0.9469331 1.0474123
0000b0 0e 57 83 3f 12 a7 74 3f ba 19 82 3f 52 0e 78 3f
       1.0260942 0.9556743 1.0164101 0.9689685
0000c0 a7 ce 85 3f 7b 46 85 3f 90 19 6e 3f 9e 56 6e 3f
       1.045369 1.0412134 0.93007755 0.9310092
0000d0 32 90 84 3f 27 7a 85 3f b5 98 85 3f ff 8c 70 3f
       1.0356505 1.0427903 1.0437227 0.9396514
0000e0 5e b8 80 3f 3f 51 84 3f 60 d4 84 3f df fb 6b 3f
       1.0056264 1.0337294 1.0377312 0.921812
0000f0 5f 72 6d 3f 96 f5 72 3f 96 30 7e 3f 91 b0 74 3f
       0.9275264 0.94905984 0.99292886 0.9558192

bias f4 [64]
000000 4b 18 46 3d b5 55 67 3d dd ba a1 bd c5 2b 3b 3d
       0.04836301 0.05647822 -0.078969695 0.04569604
000010 3d 92 58 bd 49 6b 06 bd ec b0 4d 3d eb 2d 29 bd
       -0.05287384 -0.03281716 0.050217554 -0.041303556
000020 b2 a1 80 bd f0 0d b8 bd f5 60 35 3d d8 73 4b bd
       -0.06280841 -0.08987033 0.04428192 -0.049671024
000030 a9 c5 74 3d a5 2b ae bd d5 ea 55 3d 5d 32 4e 3d
       0.059758816 -0.08504418 0.052225906 0.050341
000040 ee 05 62 bd 8c 10 d3 bd 6b 71 48 3d 50 f6 5a 3d
       -0.055181436 -0.103058904 0.04893629 0.05345756
000050 83 aa 54 bb 4f c4 cb bd b8 57 33 3d d3 5f 5d bd
       -0.0032450266 -0.09949552 0.043784827 -0.054046463
000060 9c 5e ae bc 65 c6 ad bd bf a5 40 3d c8 e9 85 bc
       -0.021285348 -0.084851064 0.047033068 -0.016346827
000070 79 c0 f0 bc cb ee 4e 3d c6 3e 34 3d 49 e9 8d bb
       -0.029388653 0.0505207 0.044005178 -0.0043307883
000080 2f 84 51 3d 4e 52 5f bd 04 b0 3c 3d a4 25 4b bd
       0.05115145 -0.05452185 0.0460663 -0.049596444
000090 b9 2b 29 3d 06 34 3d 3d 51 a5 4d bd 4f de 52 bd
       0.041301463 0.04619219 -0.050206486 -0.05148154
0000a0 18 bc 44 3d 63 9c 24 3d 50 5d cb bd 8c bd 74 3d
       0.048030943 0.040188204 -0.09929907 0.05975108
0000b0 28 d3 04 3d e9 b8 45 bd 23 cd e3 3c f2 af bb bc
       0.032427937 -0.048272047 0.027807778 -0.022911046
0000c0 14 14 c1 3c 51 26 33 3d b3 89 c1 bd d8 77 90 bd
       0.023569144 0.043737713 -0.09450092 -0.070541084
0000d0 1b 83 42 3d 09 79 16 3d 99 f4 7b 3d 35 56 bb bd
       0.047488313 0.036736522 0.061512563 -0.09147302
0000e0 78 69 00 3c 90 87 df 3c cb 05 42 3d 6c 38 9c bd
       0.007837646 0.02728632 0.047368806 -0.07627949
0000f0 7b b4 a8 bd 52 43 50 bd 50 6e 5a bb 20 a5 4f bd
       -0.08237549 -0.05084545 -0.0033329912 -0.050694585

running_mean f4 [64]
000000 9e b6 d0 3f a8 91 5b c0 02 0d 51 c0 99 81 86 bf
       1.630573 -3.4307652 -3.266419 -1.05083
000010 c7 b1 db bf 2a fa 91 bf a9 74 40 3f d8 7d 75 bf
       -1.7163628 -1.1404469 0.7517801 -0.9589515
000020 19 a6 19 c0 db 12 02 c0 7e ff d4 bf 1e 9b e3 bf
       -2.4007628 -2.0324008 -1.664047 -1.7781713
000030 c1 6a 55 c0 04 67 11 40 81 7a e2 c0 d7 59 5b 40
       -3.3346407 2.2719126 -7.077454 3.4273584
000040 62 9c 78 40 34 50 22 40 b8 40 a0 c0 b2 39 67 c0
       3.8845448 2.5361452 -5.0079 -3.6128964
000050 69 0e e9 c0 1a 32 40 40 1b 9a 19 bf a1 96 97 bf
       -7.283009 3.003058 -0.6000077 -1.1842843
000060 07 3a ff bf 8c b0 0f bf a1 df 0e c0 c4 65 b7 c0
       -1.9939584 -0.56128764 -2.2323992 -5.7311726
000070 b2 3a b8 bf 13 35 42 bf 18 29 33 40 ba bb 49 c0
       -1.4392912 -0.75862235 2.7993832 -3.152083
000080 a6 fe 84 c0 54 b0 5e c0 d7 20 48 bf 9f be 2b c0
       -4.156085 -3.4795122 -0.7817511 -2.6835096
000090 f1 e5 0d bf 96 56 65 bf ba d7 1e 40 60 27 62 40
       -0.5542899 -0.89585245 2.481917 3.5336533
0000a0 36 3d 6b c0 f9 bb 3d bf 2a 72 64 40 ac 4f ab c0
       -3.675611 -0.7411495 3.569468 -5.3534756
0000b0 ea 78 ce c0 cd c7 38 c0 60 b0 94 c0 39 57 d6 c0
       -6.45226 -2.8871949 -4.64653 -6.6981473
0000c0 c5 e2 99 c0 de 79 32 bf 76 cd 37 40 b0 d8 21 bf
       -4.808932 -0.69717205 2.8719153 -0.63221264
0000d0 72 a3 d2 bf 6a 9b 86 c0 16 44 83 bf d9 1b 4a c0
       -1.645613 -4.2064714 -1.0255153 -3.1579497
0000e0 ae c3 98 bf 08 6f c7 c0 cc 07 8f c0 d4 84 12 40
       -1.1934717 -6.2323036 -4.469702 2.2893572
0000f0 7c 4e 27 c0 0b f0 87 bf 7d 5b b3 c0 0f 4a 2f 40
       -2.6141653 -1.062013 -5.604918 2.7388952

running_var f4 [64]
000000 29 3d e2 41 1f fd 50 42 71 b7 3c 43 7b 3c 98 41
       28.279863 52.24719 188.71657 19.029531
000010 f8 1d 9c 41 b0 50 c3 41 ae 38 e7 40 b2 86 d9 41
       19.514633 24.414398 7.225669 27.19077
000020 7e 4f db 41 5b 90 db 41 4a ee ff 41 9f 5a 84 41
       27.413815 27.445486 31.991352 16.544249
000030 00 4b 69 42 a7 ec e3 40 8d 19 35 43 a6 16 8a 42
       58.323242 7.122638 181.09981 69.044235
000040 c9 72 6f 42 f6 85 95 40 b6 f6 cc 42 b9 87 60 42
       59.862095 4.6726027 102.48186 56.13254
000050 ad a3 7a 43 b0 83 d1 40 ce 4e 23 41 46 fd f1 40
       250.63936 6.547325 10.206739 7.562167
000060 95 15 69 42 0a 92 8e 40 48 6f 3d 42 56 3e 32 43
       58.271076 4.455327 47.358673 178.2435
000070 0e 73 1e 42 55 6a 86 41 d5 bf 05 42 f4 cf 9a 42
       39.61236 16.80192 33.437336 77.40616
000080 75 77 8f 42 2f 5b 77 42 7f 85 30 41 ae ca f3 41
       71.733315 61.839046 11.032592 30.473965
000090 33 7a 49 41 8c 4e ad 41 10 e8 15 42 fc 8a 84 42
       12.592334 21.663353 37.476624 66.271454
0000a0 1d ef 58 42 63 49 3d 41 27 b2 2b 41 d9 db da 42
       54.23351 11.830417 10.730994 109.42939
0000b0 c5 44 65 43 7a 0d 0e 42 63 d9 19 43 10 14 48 43
       229.26863 35.51316 153.84917 200.07837
0000c0 9b 67 83 42 4c 02 1f 41 84 67 cd 40 26 d0 23 40
       65.702354 9.938061 6.418886 2.5595794
0000d0 48 b1 18 42 4a 20 39 42 82 28 53 41 3d 49 29 43
       38.173126 46.281532 13.19739 169.28609
0000e0 01 4e 05 42 35 ba 22 43 40 9f ea 42 a8 9e a2 41
       33.326176 162.72737 117.311035 20.327469
0000f0 6d 22 06 42 1a cd a9 41 a2 3e 62 43 d3 c5 97 42
       33.53362 21.225147 226.24466 75.886375

weight f4 [2, 64]
000000 87 fb 66 3d 60 2c 43 3d 57 2e df bc 4a 4f 0c 3e
       0.05639222 0.04764974 -0.027243776 0.13702121
000010 c1 80 a0 bd 06 58 94 3d 24 0a 70 bd 77 0c 3e bd
       -0.07837058 0.07243352 -0.05860342 -0.046398606
000020 77 23 5f bd d2 35 40 bd 80 db f0 3d 15 d4 91 bd
       -0.05447718 -0.046926327 0.11760616 -0.071205296
000030 32 df 9a 3d aa 6b 17 bd a6 ec 55 bd 6d 16 98 3d
       0.075621024 -0.03696791 -0.05222764 0.074261524
000040 75 f3 a6 3b 6d 18 09 bd 79 6b cd bc 47 83 30 3e
       0.0050949403 -0.03347056 -0.025075661 0.17237578
000050 ef 95 9b bd 5c 03 2b bd 95 50 29 3e 85 98 a6 bd
       -0.07596957 -0.04175125 0.16534646 -0.081345595
000060 31 08 f4 3c c5 02 4a bc 6d fb 9b bd ad 12 51 3d
       0.029789062 -0.012329762 -0.07616315 0.0510432
000070 60 50 c7 3d cb 46 c3 3d 60 f6 b1 3d c8 6b 2a 3c
       0.09732127 0.09534987 0.086895704 0.010401674
000080 bd ef 73 3d 66 e9 86 bb 9d 2e 02 3d e6 0c 28 bd
       0.059554804 -0.0041171787 0.031782735 -0.041027926
000090 3c 4f 77 3d 42 be 08 bd c1 86 fe bc 19 28 e3 bc
       0.0603783 -0.03338457 -0.031070115 -0.027729081
0000a0 7a cd ba 3d 07 48 27 3e 2e cc a2 bd bc dc c5 3c
       0.09121223 0.1633607 -0.079491004 0.024153106
0000b0 e3 38 04 3e 68 e5 7b bd ec 8b e2 bc a3 37 18 bd
       0.12912326 -0.061498076 -0.02765461 -0.037162434
0000c0 70 cc 71 3d 4d a4 15 3d 8d a4 54 bd 99 30 92 bd
       0.059032857 0.036533643 -0.05191474 -0.071381755
0000d0 6d b7 71 3d 49 12 ef 3d d6 6e 17 3e 45 ca d5 bc
       0.05901282 0.116734095 0.14788374 -0.026097426
0000e0 6f a4 97 3d d1 4e a2 3c 10 1a 10 3e 38 25 88 bd
       0.0740441 0.019812973 0.14072442 -0.06647724
0000f0 3c 8a ab 3d 41 7e 6e 3d 0c 52 96 3d ba 94 97 bd
       0.083759755 0.058225874 0.07339868 -0.07401414
000100 f5 0b e2 bd 6e 62 83 bd e2 d8 83 3d c8 d3 10 3d
       -0.11037437 -0.06415258 0.064378515 0.03535822
000110 70 a8 85 bc 74 b9 f1 3c d3 20 1c be de 54 b3 bd
       -0.016315669 0.029507376 -0.15246896 -0.087564215
000120 e4 94 8c bc 7e 58 4d bd 01 68 db 3c 78 f5 f3 3c
       -0.01716084 -0.05013322 0.026782991 0.029780135
000130 2d b5 01 be bc d7 dd bc fc 20 21 be ab aa f2 bd
       -0.1266677 -0.02708041 -0.15735239 -0.118489586
000140 1d 2d 6e 3d bf b2 59 bc 8e 4b 06 be dd 75 85 3d
       0.058148492 -0.013287245 -0.1311476 0.06516621
000150 e7 d1 01 be d6 bc 9e bc 4e 0c e6 bd da 9f f1 3b
       -0.12677728 -0.019377153 -0.11232816 0.007373792
000160 cd 27 ba bc c8 f0 c1 bc 35 e6 20 be b5 dd 15 3c
       -0.022724057 -0.023674384 -0.15712817 0.009147097
000170 55 0b 5c 3d 15 25 1d bb 51 e0 cd bd ef 64 2d bd
       0.053721745 -0.0023978401 -0.100525506 -0.042332586
000180 bf c5 80 bd 60 d7 40 3d d8 ae 1b be c6 d4 3a 3d
       -0.06287717 0.047080398 -0.15203416 0.045613073
000190 3d 43 af bd 5c 00 15 be 39 b8 9e 3d f6 fc 0e 3d
       -0.085577466 -0.14550918 0.077499814 0.03490921
0001a0 4d 5e af bd 6c 68 0e be 16 c5 80 bc d0 e3 a7 bd
       -0.08562908 -0.13907021 -0.015718978 -0.08197749
0001b0 88 2b 75 3d a1 ee 96 3d c4 16 c7 bd 81 86 94 bd
       0.059855968 0.073697336 -0.09721139 -0.07252217
0001c0 2a c3 cd bd 85 a1 d4 bd a3 1a 19 bd fb b2 5f bd
       -0.1004699 -0.1038237 -0.03737892 -0.05461405
0001d0 18 d3 8e bc 77 3e f0 bc 91 34 51 3d 2a 95 7c bb
       -0.017434642 -0.02932666 0.05107552 -0.0038541057
0001e0 74 aa a9 3b f7 83 01 be c0 43 84 3d fe 2c 9a bd
       0.0051777903 -0.12647997 0.06458235 -0.07528113
0001f0 4c 60 93 3d 6d d3 df 3c 12 13 92 3c ab 72 4b 3d
       0.071961015 0.027322495 0.017831359 0.049669903

bias f4 [2]
000000 36 f0 bf 3d f4 54 ae bc
       0.093719885 -0.021280743
